ae_state_dict.pth (torch, 369296 bytes, 45 tensors)

encoder.0.weight f4 [8, 3, 4, 4]
00000000: d8e3 31be 6f5c 29bd 0968 9ebd c0fe 0fbe
00000010: 554f 943d 2e09 2e3e a9a1 1e3d a98f d8bd
00000020: 4f48 793e ba25 9b3e 16fe eb3d 8de4 48bd
00000030: 85ab 423e df28 8d3e 0beb 523e f2a0 173e
00000040: f1fc dfbb ba6b 803d 1481 08bd 2563 353d
00000050: 1441 a53d fe1a c03d 01e5 6bbe 327a adbe
00000060: 406b 123e 53c0 263d 1498 b8be 5ad3 07bf
00000070: b2b8 433d 2ddd dabd f475 c4be e514 d2be
00000080: ea5c 463e baa2 d93d e399 153e 312b 823e
00000090: a0b5 083e fa62 b83d 8cfa 58bd 7011 573a
000000a0: c0c1 f03d cdc3 3e3d 9b3b 2abe 960b 42be
000000b0: ed8e d53d 8252 f33c 8e3c a2bd 53d8 f9bc
000000c0: 00e1 0d3e c5d5 063e 75e1 c1bd 20ab a7bd
000000d0: 9cb0 943e f09c d73d 2b7f 5abe 5a00 99be
000000e0: d89b 723e ab5c cd3d db67 2fbe cfc6 adbe
000000f0: 81da 0d3e ad7f d43d acaf d6bd eb81 00be
00000100: 8a94 253e f9e6 f13d 5f3c 22be 56ed 28be
00000110: c9cb c13e 3600 533e 8cbe 7cbe a0f6 b0be
00000120: 05be b63e b7ac 793e 39bf 32be 5700 a4be
00000130: a5f2 333e b802 4e3e c7a8 23bd 09c7 cfbd
00000140: a536 4c3c d218 313c 4c48 e8bd b710 d1bd
00000150: 22f2 c33d 31ab 803d 8d68 d5bd fccb 16be
00000160: 2fed d03d 5f00 a23d ac12 35bd e655 9ebd
00000170: 398d 753c 83f4 a93d 004a 8bbc 5d8a f33c
00000180: 9304 513d 4b71 b9bc 10fd be3c be49 463e
00000190: dde4 cbb9 f9b9 10bd 98de 753d d19d 843e
000001a0: 3450 99bd cb87 26be a759 4fbc 3bd4 823e
000001b0: 7d40 aebd 5990 0fbf fad2 adbe dd9a 9e3e
000001c0: 9f43 7b3e bb76 e13d c6ab d33c de01 cb3c
000001d0: 86cc 8e3e 8a4f f73d 648f 02bd e795 8e3c
000001e0: 841a 443e d2b0 04be 0546 b7be be80 1cbe
000001f0: 2c97 f13c 5da4 25bf 0206 5fbf 95d8 46be
00000200: 6fe6 483d 6eb5 803d 62df 273e 73e2 923d
00000210: e757 cd3d 847f f63d 003b 0a3e 5011 733d
00000220: ef04 9f3d c43c b33d 9486 a4bc 06cc 58bc
00000230: 59e0 2c3e a27c 39be a2f2 b7be f71d 20bd
00000240: 3972 55be 59aa 1dbe 66f0 9bbd bc5e 81bc
00000250: 1530 96be e4cb 91be b386 91be 7295 53be
00000260: 57d5 a9be fd42 c5be c7a5 abbe b105 56be
00000270: 6a32 b9be 4102 c6be 51b5 aabe bd43 70be
00000280: e6fa 823e 8044 8b3e 892d 8a3e bfa7 863e
00000290: ad65 7d3e e1da 613e 4d27 523e 8a45 643e
000002a0: 80e2 633e 7c89 513e 6f65 6b3e 8be5 473e
000002b0: f883 603e ca08 3a3e e113 513e a097 833e
000002c0: 2e81 4e3e 42ae 603e 7d8a af3d 3ab6 19bc
000002d0: 084b 513e 29b8 343e 9c4a ae3d c233 d3bd
000002e0: 9c94 033e ef47 033e 7eee 21bd d5a4 edbd
000002f0: 0037 c53b 73d2 393c e006 a5bd 02cb 11be
00000300: cc1e 473e 15a7 9a3e 2661 7a3e 1dee e23d
00000310: 146a da3d 355d c83d 317e f03d 23d0 c93d
00000320: deaf 0fbe 58f7 25be 7f2e 38be a2cb 26bd
00000330: 4bdf 09be 354e 93be 4113 91be 6892 c8bd
00000340: da41 693e 5f71 b63e c90b 973e f1a0 f23d
00000350: d6a5 d33d bc17 1d3e 10e9 1c3e 3ce0 dd3d
00000360: 0f4a 1bbe 243e 87be 2520 4bbe 368d 54bd
00000370: 5a16 cebd 2057 98be de93 a0be b6e0 53bd
00000380: 734e 613d 2dab 4e3e 433e 2c3e b528 8fbc
00000390: f698 903b 958a ea3d dc4a 173e 5b69 d43d
000003a0: 56da 8abd a7e1 0dbe 0948 8bbd 40e9 03bd
000003b0: bc3a 6fbd 7f69 3ebe 457a 35be 401c 78bd
000003c0: 54ac 093c d6dd 833e cdab 3cbc a51a 86be
000003d0: 1918 33bd 3b75 7c3e 5449 f83d 161b 2dbe
000003e0: 402d d2bd a3d5 83be 8933 ce3d c61f 053e
000003f0: e7c0 e63b e010 12bd ad0e 223e 4386 88bc
-0.17372072 -0.041347917 -0.07734687 -0.14062023 0.07241694 0.1699569 0.03872839 -0.10574276
0.2434399 0.3030222 0.115230724 -0.049046088 0.19010742 0.27570245 0.20597474 0.1480749
-0.006835573 0.06270547 -0.033326223 0.044284005 0.08069053 0.09380148 -0.23036577 -0.3388229
0.14298725 0.04071076 -0.36053526 -0.5305687 0.04778356 -0.10686717 -0.3837124 -0.41031566
0.19371381 0.10626741 0.14609484 0.25423577 0.13350534 0.09003253 -0.052973315 0.00082041975
0.11755705 0.04657345 -0.166243 -0.18949732 0.104276516 0.029702429 -0.07921706 -0.03049866
0.13855362 0.13167484 -0.09466831 -0.081869364 0.29040992 0.1052798 -0.21337573 -0.2988308
0.23692262 0.10027441 -0.17129461 -0.3394074 0.13852884 0.10375915 -0.104827255 -0.1254956
0.16169944 0.11811633 -0.15843342 -0.16496786 0.37850788 0.20605549 -0.24682063 -0.3456316
0.35691848 0.24382292 -0.17455758 -0.3203151 0.1757303 0.20118225 -0.03995588 -0.10145385
0.0124642 0.01080914 -0.113419145 -0.10208266 0.095676675 0.06282652 -0.10420332 -0.14726251
0.10201489 0.07910227 -0.04420726 -0.077312276 0.014987283 0.0829859 -0.01700306 0.029729063
0.051029753 -0.02263703 0.023314029 0.19364068 -0.00038889694 -0.035333607 0.060026735 0.25901654
-0.07486001 -0.16262738 -0.012655652 0.25552544 -0.08508394 -0.5607963 -0.33950025 0.30977526
0.24537514 0.11008974 0.025838744 0.024781164 0.27890414 0.12075718 -0.03187503 0.017405463
0.1915074 -0.12958077 -0.35795608 -0.15283486 0.02949103 -0.64703923 -0.8711854 -0.19418557
0.049047884 0.06284605 0.16393808 0.07172098 0.10026532 0.120360404 0.13499069 0.059342682
0.07764613 0.087518245 -0.020083703 -0.013232237 0.16882457 -0.1811395 -0.35927302 -0.039091077
-0.20844354 -0.15397014 -0.07614212 -0.015792243 -0.2933356 -0.2847587 -0.2842308 -0.20662478
-0.33170578 -0.3852767 -0.33524916 -0.20900609 -0.36171275 -0.38673595 -0.33341458 -0.2346334
0.25582045 0.272007 0.26987866 0.26299855 0.24745817 0.22056152 0.20522805 0.22292152
0.22254372 0.20462602 0.22987913 0.19521157 0.21925342 0.18167415 0.2041774 0.25701618
0.20166466 0.21941474 0.085713364 -0.009381825 0.20438778 0.17648377 0.08510324 -0.103126064
0.12849659 0.12820409 -0.039534084 -0.11603705 0.0060185194 0.011341679 -0.08057952 -0.14237598
0.19445342 0.30205598 0.24451122 0.11080573 0.10664764 0.09783403 0.11742819 0.09854152
-0.14031932 -0.16207635 -0.17986487 -0.040721543 -0.13464086 -0.28770605 -0.28335002 -0.0979355
0.22779027 0.3563337 0.2950118 0.118471034 0.10334365 0.15341085 0.15323281 0.10833785
-0.1516497 -0.26414597 -0.19836481 -0.05189248 -0.10062857 -0.2975397 -0.31362814 -0.051727973
0.055006456 0.20182486 0.16820626 -0.017475465 0.0044127656 0.11452214 0.1477465 0.103716575
-0.067799255 -0.13855611 -0.06800849 -0.032204866 -0.058405623 -0.18594931 -0.17722423 -0.060573816
0.008402903 0.25755185 -0.01151557 -0.26192203 -0.043724153 0.24654095 0.12123361 -0.16904864
-0.10262537 -0.2574893 0.10068423 0.13000402 0.0070420387 -0.035660625 0.15825911 -0.016665583

encoder.0.bias f4 [8]
00000000: c59b b83e 11d6 3cbe 13bd 6fbd de99 d7bb
00000010: a2e2 2dbe a95d 273e 6754 ddbc f0aa 48bc
0.36056343 -0.18441035 -0.058529925 -0.0065796217 -0.16980985 0.16344322 -0.027017785 -0.012247786

encoder.1.weight f4 [8]
00000000: 1131 9a3e c7cc 0a3f c486 e03e 6d5e 153e
00000010: 1723 103f e438 a63e 0a93 3e3e f1f9 1b3f
0.3011556 0.54218715 0.43852818 0.14586802 0.5630354 0.3246528 0.18610778 0.60928255

encoder.1.bias f4 [8]
00000000: 4e58 dd3e 1741 533e 216e 81be ff71 4dbc
00000010: 80fb 7f3c 4f0f fbbd 4cbd cd3c d64f 1b3d
0.43231434 0.20630299 -0.25279334 -0.012539386 0.015623927 -0.12258779 0.025114678 0.037917934

encoder.1.running_mean f4 [8]
00000000: fc8d ba3e d597 43be 719e e7be f00b d4bd
00000010: 805f 31be cfb0 173e ed1b 113e 69cf 64bc
0.3643645 -0.19100888 -0.4523807 -0.103538394 -0.17321587 0.14813541 0.14170809 -0.013965466

encoder.1.running_var f4 [8]
00000000: bd99 283d 4253 6f3d dc12 023e 8a72 823e
00000010: 56fb 743d 25e4 383c 0930 2b3d 9b0f 8f3d
0.04116224 0.05842901 0.12702507 0.2547801 0.059810005 0.011284863 0.041793857 0.069853984

encoder.3.weight f4 [16, 8, 4, 4]
00000000: d43d c93e fdc2 0b3f 349a 453e 7849 afbd
00000010: a5c9 ea3e d1ba dc3e 214e 423d cbf7 55be
00000020: ac9e b0bd 1924 17bd 9414 24be 5a32 6dbe
00000030: 5d6a c6be 7d0f 92be 8e79 f0bd 55af 22be
00000040: a523 b6bd 545a 30be a2af 72bd f6a8 4e3d
00000050: 4226 debd 5998 683c 04ab 87ba be45 653d
00000060: 91fb d2bd 36c3 07be 77b5 b23d f17e 103e
00000070: c984 1f3e 85a4 24bc 212a 3cbd 4b35 a33d
00000080: 2ea1 b73e 8b19 093f 4ff4 c03e 10fd 393d
00000090: 9c2a 2d3e 2ad5 463e a080 ab3c 3e16 55bd
000000a0: 7c84 35be 7515 bdbe 631d c2be d8b4 f6bd
000000b0: 3b71 fbbd 8f60 88be d7ff 0bbe dc76 debc
000000c0: 6ea6 91bd a1bd 963d 9c7f 433e ac59 41be
000000d0: 666e 97be 8631 e4be 1710 bfbc 816f 19be
000000e0: e694 fcbd 40ce 76be bc92 393e 5696 b93d
000000f0: c075 693e 770d f03e f7de df3e 37c0 cbba
00000100: 49d3 89bd 9194 14be 4a46 07be 13bf f7bc
00000110: 2b20 e7bd 9658 b43d d704 ed3d c308 0c3d
00000120: 7bec 01be 58f8 b13c b58c 313e 7c0a 3c3d
00000130: f902 fdbc 3b07 e13d db1a c1bc 01f4 63bd
00000140: aaf5 d4bd ef47 293b ac2c 9b3d b657 1cbc
00000150: e74c 443d b2b7 583c 0aea de3d 4517 3a3d
00000160: 173b 72bd 760a 80bd 72a8 683d db32 c13d
00000170: 80ba 25be 771c 18be c405 4bbd de9c 103d
00000180: b06c b8be 511a b4bd be6d a2bc a270 debd
00000190: d63c 0abe e087 393e d58a 9f3e 1193 a63d
000001a0: e4df 123d af97 0b3e 73eb 9b3e 0b38 7abc
000001b0: 53d5 67be aa9e 1bbd b9d6 8a3d 96ad 06be
000001c0: 2055 1cbd b41d e2bc 4032 4cbd 43c7 8abd
000001d0: 951f 423e 382f 1e3e 211a c9bd 884c 08be
000001e0: e41a a83d 9b57 bc3c a934 f4bd 60fa 97bd
000001f0: 9527 103c 006d 6abd a4d1 46bd 2e26 25bd
00000200: 44e1 0b3e 7696 713e a5cf 8a3e fb74 0e3e
00000210: da1e 05bc 4fcb 1fbd afcf 85bb 3787 18bd
00000220: 2fb8 babd 8f4e 24be d13a bbbc 3e01 233c
00000230: 0830 33be 8bd7 47be dcd6 7fbc 07bd f73b
00000240: 944a 853d 4073 0cbe dab9 92be 8250 d1bd
00000250: 99fb 863d f649 b0bd a464 51be 9c96 10be
00000260: 31a5 833d 8104 2b3d 5a54 7d3d ec2a c33d
00000270: ed07 243e 3486 1f3e 8cf3 0d3e bdec 7b3d
00000280: d08f 483d 1037 e8bd 30d1 c7bd b132 2b3d
00000290: 5a75 343d 9a62 21bd 2ba6 8b3d b892 873e
000002a0: 6295 603c c580 033d 5f19 1d3d 12c7 be3d
000002b0: 00e2 ed3c dde3 35be 5980 04be 125c 0fbd
000002c0: 72d4 013b e30d babd b141 9bbd 5005 60be
000002d0: 9c37 61bd e446 c3bd 9946 84bb 6536 9ebd
000002e0: 011d cdbd a74c 16be 8c9a 25be 5c5f 2ebe
000002f0: 949e ab3d ece1 0f3d b230 8cbd 23e4 17be
00000300: 4925 443d 9fb7 d8bd 47e6 c1be 9fc8 8abe
00000310: daad 17be d051 9dbe 73a8 eebe 6a56 b1be
00000320: 2da1 dfbc 5a84 c73e 818e e03e 290a 9d3e
00000330: d5e4 923e c365 123f 7b5f 003f d0a0 6f3e
00000340: 4bcd 1bbe ae19 95be 0825 29be d847 2abd
00000350: b2ef 09be c8a7 a6be c99c 35be 4f01 41bd
00000360: 198e 08bd c9b1 1dbe 9966 a2bd b3ff 723d
00000370: e2d6 9bbd f9fd 51bc ae90 f53c b8e8 433c
00000380: cce0 573d 0f48 063d 1d26 c5bd 3bcb 27be
00000390: ec9e 3dbd 21a2 0f3d f884 58bd 0f85 12bd
000003a0: 00f6 49be 52fc 113e 1179 a23d f059 983c
000003b0: 3d3e f73c c5f1 7b3e e32d 9f3d 7228 703d
000003c0: 6fa0 f3bd 9542 f2be eebd 19bf bfb7 8abe
000003d0: da77 42bc 80f5 89be 72e0 2cbe c044 70bd
000003e0: 1774 9e3e a34e 003f a023 c43e 8daf 053e
000003f0: ccdd a93e e76a 013f a8e8 ba3e f1e0 19bc
0.39304984 0.54594404 0.19297105 -0.08558935 0.45856968 0.4311128 0.04743779 -0.20895307
-0.08624014 -0.03689966 -0.16023475 -0.23163739 -0.38753024 -0.28527442 -0.11741935 -0.15887196
-0.088935174 -0.17221957 -0.059249528 0.050454102 -0.10847141 0.014196479 -0.0010350649 0.055974714
-0.10301889 -0.13258061 0.08726018 0.14110924 0.15577997 -0.01004899 -0.045938615 0.07969149
0.35865158 0.535546 0.37686393 0.045407355 0.16910785 0.19417253 0.020935357 -0.052023165
-0.1772632 -0.36930433 -0.37913045 -0.12046212 -0.122774564 -0.26636168 -0.13671814 -0.027156286
-0.07111822 0.073603876 0.19091648 -0.18881863 -0.29576415 -0.44569033 -0.023323102 -0.14983942
-0.123330876 -0.24102116 0.18122381 0.090618774 0.22798824 0.46885273 0.43724796 -0.0015544955
-0.067297526 -0.14509799 -0.13210407 -0.030242478 -0.112854324 0.08805959 0.11573189 0.034188043
-0.12687866 0.021724865 0.17338832 0.045908436 -0.030885207 0.10987707 -0.023572376 -0.055652622
-0.10398419 0.002583023 0.0757688 -0.009542396 0.047924902 0.01322739 0.10884483 0.045432348
-0.059138384 -0.06251995 0.056801267 0.09433528 -0.16184425 -0.14854608 -0.049566045 0.03530585
-0.36020422 -0.08794082 -0.01982772 -0.10861327 -0.1349977 0.18118238 0.31160608 0.081335194
0.03585805 0.13632081 0.3045307 -0.015272151 -0.2263997 -0.03799311 0.06779236 -0.13152155
-0.03816712 -0.027602054 -0.04985261 -0.067762874 0.1895736 0.154477 -0.09819437 -0.13310444
0.08208254 0.022990992 -0.11924107 -0.07420802 0.0087985 -0.057232857 -0.048539773 -0.040319614
0.13660151 0.23592553 0.27111545 0.13911812 -0.008125031 -0.03901225 -0.0040835957 -0.037238326
-0.091171615 -0.16045593 -0.022855194 0.009949027 -0.17498791 -0.19515817 -0.015615191 0.0075603756
0.06508365 -0.1371584 -0.28657418 -0.10220434 0.06590957 -0.08607857 -0.20448548 -0.14119953
0.06427992 0.041752342 0.061848022 0.09529671 0.16018648 0.15578538 0.13862437 0.061505068
0.048965275 -0.11338627 -0.09756696 0.04179639 0.044057228 -0.039400674 0.068188034 0.26479125
0.013707491 0.032105226 0.038354274 0.093153134 0.02903843 -0.17762704 -0.12939586 -0.034999914
0.0019810465 -0.0908468 -0.07580889 -0.21877027 -0.054984674 -0.09535006 -0.004036736 -0.07725219
-0.10015298 -0.14677678 -0.16172236 -0.17028564 0.08379856 0.035127565 -0.068452254 -0.14833121
0.04788712 -0.10581898 -0.37871 -0.27106187 -0.14812413 -0.3072648 -0.46612892 -0.3463624
-0.027298534 0.38968164 0.43858722 0.30671814 0.2869021 0.57186526 0.5014569 0.23401189
-0.15215032 -0.29121155 -0.16518033 -0.04157242 -0.13470343 -0.32549882 -0.1773559 -0.04712039
-0.03333864 -0.15399851 -0.07929725 0.059325885 -0.07609345 -0.012816899 0.029976215 0.01195734
0.052704617 0.032783564 -0.0962641 -0.1638612 -0.046294138 0.035066728 -0.052861184 -0.035771426
-0.19722748 0.14256409 0.07933248 0.018597573 0.030181045 0.24603947 0.07772424 0.05863232
-0.11895835 -0.47316423 -0.60055435 -0.27093312 -0.011869395 -0.26945114 -0.16882494 -0.058659315
0.30947945 0.5011999 0.3830843 0.13055249 0.3317703 0.50553745 0.36505628 -0.009392009

encoder.3.bias f4 [16]
00000000: de06 233b 160a 7abc bcc4 ed3c d637 793d
00000010: 48ec ebbc da04 ad3d ad58 433c b3fb efbc
00000020: fbbc 05bc 105f 18bd 5fec 8b3c 9117 52bc
00000030: bb06 0b3d bd2c 3a3c 41c8 843b 8dd4 30bc
0.002487592 -0.015261194 0.029024474 0.060844265 -0.028799191 0.08448191 0.011922997 -0.029294824
-0.008162732 -0.037200034 0.017080484 -0.0128230015 0.033941966 0.0113632055 0.0040521924 -0.010792864

encoder.4.weight f4 [16]
00000000: 2c57 733e 89ee bd3e 5351 e53e 4760 c33e
00000010: 86df dc3e 68c7 af3e f027 fc3e 8fbe 103f
00000020: e2f0 b53e 6f39 273f 4e32 ef3e 1cf2 e03e
00000030: 6a0b 063f e243 ab3e d887 b23e ea05 e83e
0.23763722 0.3709605 0.44788608 0.3815939 0.43139285 0.34331822 0.4924922 0.5654077
0.35535342 0.6532201 0.46718067 0.43934715 0.52361166 0.33450228 0.34869266 0.45317012

encoder.4.bias f4 [16]
00000000: 350d 98bd bd5b ecbc 9024 bbbd 3546 edbd
00000010: 0b18 04bd 2115 01be c665 bebb d743 123e
00000020: 10f0 a4bd c428 153d f6a5 cabd 1125 273e
00000030: 65e6 b5bc 4cfc e4bd 921a 35be 2c85 84bd
-0.07424394 -0.028852338 -0.09137833 -0.115856566 -0.03224949 -0.12605716 -0.005810472 0.14283691
-0.08053601 0.03641583 -0.09894936 0.16322733 -0.022204587 -0.11180934 -0.17685917 -0.06470713

encoder.4.running_mean f4 [16]
00000000: 5062 4d3d 1cb8 a43d a653 03be a056 65be
00000010: 23cd 3dbf a8c1 f2be 27f3 eebf 753a f0bf
00000020: d09a 15bf 861c aabe 5304 f3be c9bb 113e
00000030: 4e1f 06bf a83f 23be 58cd 31be 1ff5 2dbe
0.050142586 0.080429286 -0.12824878 -0.22396326 -0.7414114 -0.47413373 -1.8667954 -1.876784
-0.5843935 -0.33224887 -0.47464237 0.1423179 -0.5239152 -0.15942252 -0.17363489 -0.16988038

encoder.4.running_var f4 [16]
00000000: 1f1d 843d a666 7f3f 131a 383f 42e2 4e3e
00000010: b3c6 883f c58e 913e e518 f73f 880e 1340
00000020: 111d 533f 64d3 5540 5e5b 783f 55dc c33f
00000030: f802 4f3f 74f9 263f 7b2e 003e 9d85 3b3f
0.06450867 0.99766004 0.71914786 0.20203498 1.0685638 0.28429237 1.9304472 2.297762
0.82466227 3.3410273 0.97014415 1.5301615 0.80863905 0.65224385 0.12517731 0.7325075

encoder.6.weight f4 [32, 16, 4, 4]
00000000: 9915 0bbe cc8f 33be 08bc 44be c7b6 43be
00000010: 4a54 c0be 3b34 35bf cd5d d0be 9056 b3be
00000020: 6046 e4be 0dfc 4ebf eebd 30bf f30d 97be
00000030: 2dde 16bf 8c5b ebbe acd7 aabe dd27 13be
00000040: 750d 00be 71b8 edbd 9a16 79bd 39e9 8ebc
00000050: 77a6 82bd fd88 f9ba a41a 443e f568 be3d
00000060: 6dea 4a3d 5305 ed3d 5c34 4c3e 7907 403d
00000070: 0f8f dc3d 5e81 1abd 7d16 213d 9da2 423d
00000080: 7f67 aa3e 0f73 1a3e 1d0d 17be 2598 1fbd
00000090: 974e 9b3e 77e8 473c 8e8c 8fbd a3e0 2a3d
000000a0: 9ad1 82bd 32f7 52be 72b4 be3d 8c2e 2d3e
000000b0: a608 5cbd e313 82bd 4a17 ff3d d2d6 9d3d
000000c0: 5088 fd3d 3c3b e3bd 9da2 68be 642c cebc
000000d0: 5c33 28be 8fbf d9be 40be 9dbe 8d0d 6ebe
000000e0: bea3 18bf 8683 7dbf 8abb 23bf 868c ccbe
000000f0: a020 02bf 7e76 23bf 98be 14bf 2acf 01bf
00000100: b633 6dbe 940a 22be 11d4 04bc 0c98 49be
00000110: b273 8cbd 5ee8 3ebe 63ac d2bd e254 2bbe
00000120: a83e 91bc 83fb 08be 4281 5abe f7bc cfbc
00000130: 960f c8bd 1648 c7bd 3ee5 29be 64c2 45bd
00000140: 0d5e f2bd 4232 86be 10b7 12be b041 c7bd
00000150: 6cf2 05be 00ae 96be 5d79 3ebe 7e80 1ebe
00000160: 3560 a3bd 3d81 77bd 41ba 09be 5f63 a1be
00000170: a8bc 81bd f2c8 6ebd bb64 8cbe 5c81 91be
00000180: 03a4 9fbe 84cf 0fbe 2f92 72be fd6e 92be
00000190: 9de0 13be 9e4d 6a3d 0f08 0d3e 056f d4bd
000001a0: 16ec 313d a824 453e e50c ff3e 17e0 9b3e
000001b0: b60d 84bd 155f ef3d 2ebf ac3e 6937 123e
000001c0: d572 33bc daae 38bd 040f 20bd 6179 45bc
000001d0: 1d04 5b3c 6565 e1bd a149 7bbc cb2a 61bd
000001e0: 49e6 47bc 00e9 23bd eb3e 2a3d 1df3 2dbd
000001f0: e235 29bd 7f40 d23c 4c8c adbd 7113 adbc
00000200: 49d5 353e 5626 383e 9db4 9f3e 6d61 023e
00000210: c4bc 243e cf36 ca3d 50c3 6d3e 1223 053e
00000220: 9cb7 883c 2efd d9bd 77f7 36bd 0825 243d
00000230: b215 ffbc e75e 5c3d 9bcb a8bc 3143 16bd
00000240: e1d2 b53b d7ab 3fbd d754 b0bd be1b 8abb
00000250: 9384 bcbd 8de0 35be d010 51be f639 bfbd
00000260: da15 dabd cc20 cfbd dbc0 413d e933 65bd
00000270: 1f25 9bbd d10b 9dbd 2680 cf3d 3972 f23c
00000280: bc9f 5b3e ee6c 9bbd 442d d8be 2a31 0cbe
00000290: 42e8 cd3d 0042 6bbe d012 f5be 5076 9abd
000002a0: 2421 00be 2ddf 62be 2cd3 7ebe de88 f3bd
000002b0: 955a 293c df7c 63bd e622 cabd cb01 67bc
000002c0: f9b7 1b3d 812c 1fbd 15ff f9bd 75e7 50bd
000002d0: db18 7e3e e9be cf3d 3e3b 69be 8431 7fbd
000002e0: 27c5 553e 3e0c c53d 1add 20be 307c b8bd
000002f0: cb38 9f3d a958 32bb fe64 bbbd 8625 fdbd
00000300: d39b ddbe 67bc c1be 9948 e0bb d19b 4a3d
00000310: 82ca fabe 561c 12bf 9961 06be 0a42 f63d
00000320: 3cb3 87be 181e c3be 2c80 91be 3d15 a23d
00000330: beee 6abd ea12 2ebe 8004 abbd b290 023e
00000340: b382 22be d24a 02bd 22e9 a83e 4af3 c63e
00000350: 2995 d7be f39f c2be 356f f0bc 09b6 693e
00000360: a4ce 8cbe 835c e0be 98eb 7cbe 6fde 1fbe
00000370: 77f7 a8be 2a90 99be 1d8c 9abe ddd4 34be
00000380: b4a6 45bd 702b 19be f46f 47be b5f2 8fbd
00000390: 92af 12be 20fb 47bf 8985 44bf e7c3 76be
000003a0: b0eb fbbe f70a 74bf 0c82 46bf 2472 71be
000003b0: d854 dbbe 082a f2be f7e5 86be e741 fbbd
000003c0: 4b37 35bd 436e 0cbe a69a 103d 25f1 f63d
000003d0: d847 05be 681e 8cbd bcf7 9fbd 46e2 54bd
000003e0: 688e 513d a1f8 80bb 2d1b 92bd 4bf5 04be
000003f0: 1743 773d 93f0 dc3c f940 3abd 3381 00bd
-0.13582458 -0.17535323 -0.19212353 -0.19112693 -0.37564307 -0.7078282 -0.40696564 -0.3502698
-0.44584942 -0.8085335 -0.6903981 -0.2950283 -0.58932763 -0.45968282 -0.3336767 -0.14370675
-0.12505133 -0.11607445 -0.06081257 -0.017445194 -0.06379407 -0.0019038018 0.19150788 0.09297363
0.049539972 0.11573281 0.19941849 0.046882126 0.10769474 -0.03772103 0.039328087 0.04751836
0.33282086 0.15082954 -0.14751096 -0.038963456 0.30333397 0.01220142 -0.070092306 0.041718137
-0.063876346 -0.2060211 0.09311761 0.16912287 -0.053719185 -0.06351449 0.12455614 0.07706989
0.12379515 -0.110952824 -0.22718282 -0.025167651 -0.16425842 -0.4252896 -0.30809212 -0.23247357
-0.5962485 -0.99028814 -0.63958037 -0.3995096 -0.5083103 -0.6385268 -0.58103323 -0.5070673
-0.23164257 -0.15824348 -0.008107201 -0.19686908 -0.06858005 -0.18643329 -0.102867864 -0.16731599
-0.017730072 -0.13377194 -0.2133837 -0.02535866 -0.09768598 -0.09730546 -0.16591355 -0.04828109
-0.11834345 -0.2621022 -0.14327645 -0.09729326 -0.13080758 -0.29429626 -0.18600984 -0.15478703
-0.079773344 -0.060425986 -0.13449956 -0.31521127 -0.063348114 -0.058297105 -0.274206 -0.28419006
-0.3117982 -0.14044005 -0.23688577 -0.28600302 -0.14441152 0.057202928 0.13772605 -0.10372738
0.04343804 0.19252264 0.49814525 0.30444404 -0.06447928 0.11688057 0.3373961 0.1427895
-0.010952671 -0.045088626 -0.03907682 -0.012052865 0.01336768 -0.110056676 -0.015337379 -0.05497245
-0.0122009 -0.040017128 0.04156391 -0.04246818 -0.041311152 0.02566552 -0.08474025 -0.021127434
0.17757143 0.17983374 0.31192484 0.12732477 0.16087633 0.09873735 0.23219037 0.1300166
0.016689114 -0.10643993 -0.044669595 0.04007438 -0.031138275 0.053801443 -0.0206049 -0.036685172
0.0055488204 -0.04679474 -0.08609932 -0.004214733 -0.09204974 -0.1776144 -0.2041657 -0.09337227
-0.10648699 -0.101136774 0.047303062 -0.05595771 -0.0757544 -0.076682694 0.10131864 0.029595481
0.21447653 -0.07589136 -0.42222035 -0.1369063 0.10054065 -0.22974396 -0.47865915 -0.075420976
-0.12512642 -0.22155447 -0.24885243 -0.1189134 0.010336538 -0.05553901 -0.098699376 -0.014099549
0.038017247 -0.0388608 -0.12206856 -0.051001985 0.24814169 0.10143835 -0.22776505 -0.06230308
0.20875989 0.09621476 -0.15709344 -0.09008062 0.07774504 -0.002721349 -0.09150122 -0.12360673
-0.43282947 -0.37839052 -0.006844592 0.049465004 -0.48982626 -0.5707449 -0.13123168 0.12024315
-0.26503932 -0.38108897 -0.284181 0.07914207 -0.05735659 -0.16999403 -0.08350468 0.1275051
-0.1587017 -0.031809635 0.32990366 0.3885749 -0.42105988 -0.38012657 -0.029349903 0.22823347
-0.27501404 -0.4382058 -0.24699247 -0.15612195 -0.330013 -0.299928 -0.30185023 -0.17659326
-0.048254684 -0.14957976 -0.194763 -0.070287146 -0.14324787 -0.7811756 -0.7676626 -0.24098168
-0.49203253 -0.9532923 -0.77542186 -0.23578697 -0.42838168 -0.47297692 -0.26347324 -0.12268429
-0.044242185 -0.13713937 0.035303734 0.120577134 -0.13015687 -0.06841737 -0.078109235 -0.051973604
0.0511612 -0.003935889 -0.071340896 -0.12984197 0.060366716 0.026970183 -0.04547212 -0.031373214

encoder.6.bias f4 [32]
00000000: 7976 da3b c4d8 b23b a031 623c 6c4a a5bc
00000010: 2059 173c 64fc 5e3c 35a3 3cbc 7b0b c9bb
00000020: 10fe 32bc e8ac 993b d34b 6c3c 7793 203c
00000030: 875a b5bb aed9 6f3c b7e0 59bc 4875 763c
00000040: 4fc8 d8bb b47c 343c 2c75 e439 6034 55bc
00000050: 5218 223c a44d 22bc c4fe bb3b 0fe7 443c
00000060: 472a 833c 409b cfbb f8c1 caba 08d0 04bc
00000070: 30ae 94bc 328a b9ba 141b 233c 8b2c 6fbb
0.006666955 0.0054579694 0.013805777 -0.020177089 0.009237558 0.013609979 -0.011513521 -0.006135402
-0.010924831 0.0046898015 0.014422375 0.009800783 -0.0055344733 0.014639301 -0.013298205 0.0150426105
-0.0066156755 0.01101606 0.0004357485 -0.013012975 0.009893494 -0.009906206 0.0057371575 0.012017979
0.01601137 -0.006335646 -0.0015469184 -0.008106239 -0.018149465 -0.0014155565 0.009955186 -0.0036495056

encoder.7.weight f4 [32]
00000000: 0680 dc3e 06c3 bb3e a4d8 263f eef0 d63e
00000010: 0e2a b63e 5007 ec3e d6f6 b03e 0a73 e03e
00000020: 9fa3 143f 6f28 f23e 6437 913e 463d 8b3e
00000030: d047 073f 2bc9 ea3e 7895 993e 0fd0 2b3f
00000040: 774f e43e 594f ad3e 1deb ab3e 567c d53e
00000050: 9d3b a23e b298 863e 8f44 893e efd2 f93e
00000060: 00d5 a63e 60fe ab3e 0bf0 b13e 5370 913e
00000070: b229 893e 7c5a a43e f002 9b3e 554b c13e
0.43066424 0.3667223 0.6517432 0.4198069 0.3557896 0.4609933 0.3456332 0.43837768
0.58062166 0.47296473 0.28362572 0.27195185 0.5284395 0.45856604 0.29996848 0.6711435
0.44591877 0.338496 0.33577815 0.41696423 0.31686106 0.26288372 0.2681012 0.48793742
0.3258438 0.3359251 0.3475345 0.2840601 0.26789623 0.32100284 0.3027568 0.37752786

encoder.7.bias f4 [32]
00000000: 734f a33d e17c 03be 0a8c d7bd e3f8 fcbd
00000010: 58df 19be d715 6cbe a1d3 09be 48f7 f3bd
00000020: 1f81 f1bd 8cb7 9fbd 458c 04bd 1bca 89bd
00000030: 8f6c febd 71f5 01bd 1779 d6bd b80c 10be
00000040: 2e5b 50be c4f8 863d 1692 1fbe 5ee6 0fbd
00000050: 6f96 ddbd afaa d2bd 636d 3e3d c5b1 79be
00000060: 43c9 f2bd 000f 0ebe 0ce5 99bd 2163 0dbe
00000070: 0a6e 09bd b921 e8bb 950f 5ebd 4f31 46be
0.07974138 -0.12840606 -0.10524757 -0.12352159 -0.15026605 -0.23055206 -0.13459636 -0.119123995
-0.11792206 -0.07798681 -0.032360334 -0.06728002 -0.1242305 -0.03172821 -0.10472315 -0.14067352
-0.20347282 0.06590417 -0.15583071 -0.035131805 -0.108197086 -0.102864616 0.046491038 -0.2438422
-0.11854794 -0.1387291 -0.0751439 -0.13807346 -0.033552207 -0.007084098 -0.05421408 -0.19354747

encoder.7.running_mean f4 [32]
00000000: 58f5 dfbf 5ec1 e8bc 7fa4 4dbe e1ce 72be
00000010: f18f 2d3e 5ce1 87be f0bd babe 717a bdbf
00000020: fa4f bcbf be54 b53d c618 7dbf a807 bc3e
00000030: f6d4 e9be cc66 b2bf cd31 e7be 655c e3bf
00000040: 343c 1fbf bc47 04c0 fd3d 483e 221c 3dbf
00000050: 5d3f 0ebf 4217 cfbf 0bf2 133f 06c1 54bf
00000060: a19d eebe 42aa cd3d 3001 56be 36c2 cdbf
00000070: a897 1dbe 02c4 03c0 8ff7 5fbd 21f7 0abf
-1.7496748 -0.028412517 -0.20082282 -0.2371173 0.1694944 -0.26539123 -0.36473036 -1.4802991
-1.4711907 0.08854054 -0.98865926 0.3672459 -0.4567029 -1.3937621 -0.45155182 -1.7762572
-0.6220124 -2.0668783 0.19554897 -0.7387105 -0.55565435 -1.6178973 0.57791203 -0.8310703
-0.46604636 0.1004224 -0.2089889 -1.6074893 -0.15389884 -2.0588384 -0.05467945 -0.5428334

encoder.7.running_var f4 [32]
00000000: 6b84 b03f a47f 083f 24bc 2f40 2fbe 0e3f
00000010: f563 9b3f f05f fd3e 69af 0c3f dde2 793f
00000020: 5623 dd3f b019 ac3f 8558 573f d503 763f
00000030: 37ab f73f f663 1840 0753 213f 86d6 4440
00000040: 052e e53e 5cc8 843f bd6a 393f 8785 983f
00000050: aec1 6f3f 4ba5 853f 53f8 893f e065 4b3f
00000060: 1bd8 ed3e 6d58 2f3f 360a 1d3f 7b04 4a3f
00000070: 9ea6 1d3f 74d0 ea3f f8c5 073f bf07 dc3e
1.3790411 0.53319764 2.7458582 0.5575895 1.213988 0.49487257 0.54955155 0.9761179
1.7276409 1.3445339 0.84119445 0.960996 1.9349126 2.3811011 0.63017315 3.0755935
0.44761673 1.0373645 0.72428495 1.1915749 0.93654907 1.0441068 1.0778908 0.79452324
0.46453938 0.684943 0.61343706 0.78913087 0.6158236 1.8344865 0.5303645 0.4297466

encoder.9.weight f4 [64, 32, 4, 4]
00000000: 7816 c0be a04f 3ebe 5177 8fbd dd00 9fbe
00000010: fff6 0cbe 1a35 4e3d be97 843d e00b 613d
00000020: 1edd 54be 8959 303d e2e3 34bc 8605 7cbe
00000030: 6c57 09bf 1805 8fbe 637e b0be e10e e2be
00000040: 47ff 853d e49c a43c 3719 573e 5a7e a63d
00000050: c86a 133e be8e 143e 521a 893e 9b14 1c3e
00000060: a49c 2f3e 6c9a 4b3e e002 993e 3327 3b3e
00000070: bb5f a9ba d9cd 723d 5592 0e3e 8089 cd3d
00000080: e772 f03d ffd3 df3e c5b9 3f3e a910 e13e
00000090: 0528 0f3d c4ad 633e b6c2 883d 870e b03d
000000a0: 9f95 ff3d a975 193e 9f83 9f3d 170d 593e
000000b0: ef78 d53b 9cc8 1b3d b3ff 76be 6f30 85be
000000c0: fa18 c23d b317 793e 1ea2 503e 7e2d 293e
000000d0: 49cd 243e a72b 9b3e 0452 a23e 5ab7 713e
000000e0: fdd8 dd3d 4ca3 6f3e f969 5a3e 7f0b 6a3e
000000f0: 20ff 303e 230b df3d 793d 803e 195f 3d3e
00000100: 7d60 32bd 2dcc 713e 9b45 783e 3909 92bd
00000110: 15a2 f4bd c8ee 833e b080 a43e 0632 45be
00000120: 1567 edba c7c6 e53d 85e8 483e 0961 a9be
00000130: d63d 2d3e ac5f 803d f652 0cbd d2ea 53be
00000140: 3b07 6fbc 7e2e 2bbe 72bd c5bd f662 233e
00000150: cbbe edbd aed7 2dbe 34f1 0a3e 0290 acbd
00000160: 04c7 6c3e d491 353d b74a 25be 8991 70be
00000170: a5fa 2ebc fbcb 73be d754 383d a5af e73d
00000180: 675a 293d 5237 d63d f30b 5d3e 2484 19bd
00000190: bc5c 463d 7029 433e f8ea 183e 699c b63d
000001a0: d1f0 e9bd 9290 1c3e 26b3 f0bc 8523 bfbc
000001b0: ebba 1dbd 71d6 31bc dc8b 0a3e 334f be3c
000001c0: 82a5 f73d e2bf 14be fe50 4f3e 97b9 4dbe
000001d0: 1e26 343d c0ac c5bd b03a 9fbd ece8 aebe
000001e0: 2337 113e 362f 6bbd 5ca9 f93d 7269 15be
000001f0: eb50 09bd a132 7bbd 0b34 a83d 9698 3ebe
00000200: 1e04 073e 1aed 423e 1c94 be3d 7aae 7b3e
00000210: 9055 47bb 31d9 973d b1c0 133e 607e 163e
00000220: 3c53 5f3e 34c5 d33e b1ae 173e 44b4 833e
00000230: 174c 833e 0ffe 4f3e bec5 83bd d51a 7abd
00000240: 8367 b63e 4033 673e d8b7 733e bf86 f73c
00000250: a428 c93d 89f8 e7bd cd2a 5b3d aa97 6ebd
00000260: 9e24 4cbd a51a e3bd d909 babc f0b7 1abd
00000270: 44b3 d9bd efdc 043e 65cf 863d e034 db3d
00000280: 0591 c2be 2913 dc3c 1a82 08be ff2a b9be
00000290: 25e9 0d3d 0f26 0e3e 2f20 083d 400e 4abe
000002a0: 4902 a33c aa8d cd3e 71df 7bbc 1f0d a2bd
000002b0: 9255 d9bc c3d6 013e 8e51 64be f1e0 e3be
000002c0: 2754 a83d e61d a5bd b073 783d 2166 60be
000002d0: 0a92 8a3d 47a9 f93d 022b c63c bea1 e1bd
000002e0: 8fd3 8e3c 4e49 2c3d 4c31 fd3d c2e7 a8bc
000002f0: c05d 943c e37a 98bd 00e2 55be f5f0 85be
00000300: 9b54 da3e c94f e63e 57b8 f43e ebb1 1d3f
00000310: 98b9 2c3e 33b4 8bbc 5778 9e3e de53 d13e
00000320: 3695 503e 15fe 2a3e e19c 803e 58ac c03e
00000330: 0755 903e 6d2f 503e d5cb 0a3f 5af3 8e3e
00000340: 1013 33be 4a60 a03d 9d7f fcbc e435 2cbe
00000350: 3988 a5bd 1a8d 61bd 833c 403d 0609 e93c
00000360: e70d 6bbe f57a 1bbe 60a2 92bd f80d edbd
00000370: e84d 83be 163b 25be 20a5 46be 20a8 a2be
00000380: e1e1 f23d f2df b03e cc04 fb3e ffef cd3e
00000390: aae2 653e 63f8 f23e 0711 9e3e 3c4a d93e
000003a0: 194e 5c3e 4ef8 9d3e d631 593e 69e7 ea3d
000003b0: 700d 553e ab4e dc3e c1dd cf3e 67d1 df3e
000003c0: 567f 1e3e ec2c 9d3e 230c 8e3e 43cd 0d3f
000003d0: fd07 ab3e 1046 853e 801b 2a3e 926e ad3e
000003e0: 0cbb 0a3e f832 883e ff85 1e3e 61e4 df3e
000003f0: 8e54 433e ac0a b13e 58ac 683e 9e27 913e
-0.37517142 -0.18585062 -0.0700518 -0.31055346 -0.13766097 0.05034361 0.06474255 0.054942966
-0.20787475 0.043054137 -0.01104066 -0.24611482 -0.5364902 -0.27933574 -0.34471425 -0.44151977
0.06542831 0.020094343 0.21005712 0.081295684 0.14396203 0.14507577 0.26777893 0.15242235
0.17149597 0.19883126 0.29885006 0.18276672 -0.0012922207 0.059278343 0.13923009 0.10035992
0.11740666 0.43716428 0.18723209 0.43958023 0.034950275 0.22234255 0.06677763 0.08596521
0.1247971 0.1498629 0.077887766 0.211964 0.0065146605 0.038033113 -0.24120979 -0.26013514
0.0947742 0.24325447 0.20374343 0.1652126 0.16093935 0.30306742 0.31703198 0.236051
0.10832403 0.23402137 0.21329488 0.22855948 0.17284822 0.10890796 0.250469 0.18493308
-0.04354905 0.23613043 0.24245302 -0.07130665 -0.11944977 0.25768113 0.3212943 -0.19257364
-0.0018112386 0.112195544 0.19619949 -0.33081844 0.1691812 0.06268248 -0.034258805 -0.20695046
-0.014589126 -0.16716954 -0.096552745 0.1595572 -0.116086565 -0.16976807 0.13568574 -0.08425905
0.23122793 0.044328526 -0.16141783 -0.23493017 -0.0106798755 -0.23808281 0.045002785 0.113127984
0.04134598 0.1045977 0.2158659 -0.037479535 0.048428282 0.19058776 0.14933383 0.089165516
-0.11422885 0.15289524 -0.0293823 -0.023332367 -0.038508337 -0.0108543495 0.13529915 0.023231125
0.12092115 -0.14526322 0.2024574 -0.20090328 0.043981664 -0.0965209 -0.077748656 -0.3416208
0.14181189 -0.05741807 0.12190506 -0.14591005 -0.033524435 -0.06132758 0.082130514 -0.18612894
0.13185164 0.1903576 0.09305593 0.24578276 -0.003041599 0.07414473 0.14428975 0.14696646
0.21809095 0.41361392 0.14812733 0.2572347 0.2564399 0.2031176 -0.06434201 -0.061060745
0.35625848 0.22578144 0.238006 0.03021562 0.09822205 -0.11326701 0.053507615 -0.058250107
-0.04983961 -0.110890664 -0.022709774 -0.037773073 -0.10629895 0.12974904 0.06582526 0.107034445
-0.38001266 0.026864605 -0.1333088 -0.36165616 0.034646172 0.13881706 0.033233818 -0.19731998
0.01989855 0.40147144 -0.015373097 -0.07912659 -0.02653006 0.12679581 -0.22296736 -0.44507554
0.08219176 -0.08062343 0.060657203 -0.21913959 0.06766136 0.1219049 0.02419043 -0.11017178
0.017434863 0.042062096 0.12362918 -0.020618323 0.01811111 -0.07445314 -0.20886993 -0.26160398
0.42642674 0.44982746 0.4779689 0.61599606 0.16867673 -0.0170537 0.30951187 0.40884298
0.2036942 0.16698487 0.2511969 0.37631488 0.2818987 0.20330591 0.54217273 0.27920038
-0.1748774 0.07830866 -0.03082257 -0.16817433 -0.08082623 -0.055066206 0.04693271 0.028446686
-0.22954522 -0.15183623 -0.07159877 -0.1157493 -0.25645375 -0.16135821 -0.19398928 -0.31768894
0.11859489 0.34545857 0.49027097 0.40222165 0.22449747 0.4745513 0.30872366 0.4243945
0.21514167 0.30853504 0.21210417 0.11469919 0.20805907 0.4302877 0.40598872 0.4371445
0.15478262 0.30698335 0.27743635 0.5539133 0.33404532 0.26030016 0.16612053 0.3387342
0.13547915 0.26601386 0.15480803 0.43728927 0.19075224 0.34578454 0.22721994 0.28350538

encoder.9.bias f4 [64]
00000000: d26b 943b 6005 323c a8e4 173c 3390 c53b
00000010: 0a2f 95bb e845 a0bb 4a77 683b 2f79 9fbb
00000020: 1036 3e3c d095 e3bb 00b7 aebb e6f8 303c
00000030: 1f9e 043b 1b81 48bb e188 70bc 40b7 d4bb
00000040: dc0f 1ebc 13b0 09bb f556 d83a 6634 163c
00000050: 3097 493c 8bb3 9dbb 8357 47bc df45 c8bb
00000060: 17c2 1abc 13f0 8a3a 298f 4d3b e903 1dbc
00000070: e08d edbb a42f 503b 83a7 97bb f666 ab3b
00000080: 079b 343c 1b32 d2bb d982 3fbc 0ca6 42bb
00000090: e843 ebbb 303e 61bb 6b9e 38ba da9d 52bc
000000a0: 0686 19bc 1038 06ba 66de 313b e6e2 42bb
000000b0: 4079 123c 969c 5d3c f659 3fbc 31e2 283c
000000c0: 8aaf 493b 891a 4e3b 3e9d 80bb b663 c4bb
000000d0: d27e 8dbb 1dff d4bb 61a9 153a 4665 30bc
000000e0: 5ad8 ec3b 6ca2 b9bb b576 ba3b 8f8f 103c
000000f0: 1cf0 dd3b 4f35 243c 91c0 1d3c 18a0 36bc
0.0045294547 0.010865539 0.0092708245 0.006029153 -0.0045527266 -0.004891146 0.0035471492 -0.004866741
0.011609569 -0.0069453493 -0.005331874 0.0108015295 0.002023585 -0.003059453 -0.014681072 -0.0064915717
-0.009647336 -0.002100949 0.0016505407 0.009167766 0.012304112 -0.004812663 -0.0121668605 -0.006111845
-0.009445689 0.0010600112 0.0031365848 -0.009583452 -0.007249579 0.0031766677 -0.0046281232 0.0052307798
0.0110232895 -0.0064146644 -0.011688911 -0.0029701022 -0.007179726 -0.0034369342 -0.0007042649 -0.012855018
-0.009370333 -0.00051200483 0.0027140616 -0.0029737293 0.008940041 0.0135261025 -0.011679163 0.0103078345
0.0030774795 0.0031448922 -0.0039249947 -0.005993332 -0.0043180967 -0.0065001384 0.00057091383 -0.010766333
0.0072279396 -0.005665114 0.0056904205 0.00882329 0.006773008 0.010022475 0.009628431 -0.011146568

encoder.10.weight f4 [64]
00000000: 14f6 ef3e 3b49 653e c797 8d3e 71d2 8c3e
00000010: d36c c63e a3a3 f03e 80f6 a53e 64a4 a43e
00000020: 566a 9a3e 2286 ad3e d6df 883e acdf b23e
00000030: 0a7c 963e 74ac 983e 186b e73e 80c7 9c3e
00000040: 3574 6f3e 408d 7e3e d38b 9f3e 0f3a e33e
00000050: b7b7 8f3e ee3d ac3e e88e 823e 892e ad3e
00000060: d407 983e 97ac a73e 503a 723e 00ad 6c3e
00000070: f813 b83e df5b 903e 99ca c03e 3e06 f33e
00000080: 9204 853e fce3 993e 5170 993e 526c c33e
00000090: a685 923e 32af c13e 82f9 a73e 2584 b83e
000000a0: ea33 f73e 9d8c ce3e 6ea9 3b3e e0a4 a43e
000000b0: 4d02 af3e 2678 913e 2daf c33e ab19 813e
000000c0: 4318 b13e 7831 9e3e b96b 913e 924c c43e
000000d0: 4427 9a3e 35a7 a63e 5390 c13e e0a2 983e
000000e0: 2559 a33e 4a93 b63e 4636 433e 86a9 d83e
000000f0: cb20 a63e 73e6 ba3e c5d0 9c3e cb8b de3e
0.4686743 0.22391216 0.2765486 0.27504304 0.387549 0.46999845 0.32414627 0.3215667
0.30159253 0.33891398 0.26733273 0.34936273 0.2939151 0.2981907 0.45198894 0.30620956
0.23384173 0.2485857 0.31161365 0.44380233 0.2806985 0.33641 0.25499654 0.33824566
0.29693472 0.32748863 0.23655057 0.2311287 0.35952735 0.28195092 0.3765457 0.474657
0.2598005 0.3005675 0.29968503 0.3816858 0.2861759 0.37828976 0.32807547 0.36038318
0.48281795 0.40341654 0.18326351 0.3215704 0.34181443 0.28411978 0.38219586 0.25214896
0.34588823 0.30897117 0.28402498 0.3833967 0.30108082 0.32549444 0.37805423 0.29811764
0.3190395 0.35659248 0.19063672 0.42316836 0.32446894 0.36503944 0.3062803 0.4346603

encoder.10.bias f4 [64]
00000000: 3bab dfbe f605 28bd c7ff e0bc ca8c b9bd
00000010: 6ff6 6dbe 3d1e b9be b9b0 3abe 90f9 53be
00000020: 036b 1ebe c27b f9bd c89d e2bd f744 0fbe
00000030: b243 6cbe e21b 07be a162 95be cf92 9ebe
00000040: 2fe0 73bc cd7f 32be 5449 06be 0c4d c0be
00000050: 6f9e 1dbe 437c 0fbe cef2 89bd 75de 1abe
00000060: 15e6 2dbe f5f0 23be 4f5b 17be 5804 123e
00000070: 71ce a4be fc9a 36be d52d 82be 5492 c0be
00000080: 2dc4 64bd fd5f b0bd 8c19 32be aff2 ecbd
00000090: 88f6 e0bd ca45 58be 99c5 97bd dd9f 7bbe
000000a0: 502b a8be 9099 e8be 93d1 b23d cfa9 58be
000000b0: 4a6f e9bd e569 64bd 5668 9cbe 28b2 00be
000000c0: de67 77be dc4b 83be cc8e 9abc 563d 32be
000000d0: 40e7 47be 9a80 d2bd 0389 40be dcaa 2cbe
000000e0: d9eb 20be 919a 8cbe 4c52 44bd c752 64be
000000f0: 4b25 33be 1ebf 7bbe 5bd3 1fbe 7e00 3fbe
-0.43685326 -0.04102131 -0.027465714 -0.090600565 -0.23238538 -0.36155882 -0.18231477 -0.2070067
-0.15470509 -0.12181808 -0.11065251 -0.13991152 -0.23072699 -0.1319423 -0.2917681 -0.3097138
-0.0148849925 -0.17431565 -0.1311391 -0.37558782 -0.15392469 -0.14012246 -0.067357644 -0.15123923
-0.169823 -0.16009887 -0.14780925 0.1425947 -0.32188752 -0.1783256 -0.25425592 -0.3761164
-0.05585115 -0.08612058 -0.17392558 -0.11569726 -0.10984522 -0.21120372 -0.07410736 -0.24572702
-0.32845545 -0.4542966 0.08731379 -0.21158527 -0.1139818 -0.05576505 -0.30548352 -0.12567961
-0.24160716 -0.25643814 -0.018866919 -0.1740621 -0.19521809 -0.10278435 -0.18802266 -0.16862053
-0.15714969 -0.27461675 -0.047930047 -0.22297202 -0.17494695 -0.24584624 -0.1560797 -0.18652532

encoder.10.running_mean f4 [64]
00000000: 3715 a13f b4da 183e 05b0 3240 6258 21bf
00000010: 5eb7 a4be b75f 953e 18c3 ccbe 3330 fabe
00000020: 4156 fabe bb64 c2bf 4a77 a43f 7105 47bf
00000030: ecf7 853f 3327 193f be4f 3fbf aa72 8bbf
00000040: ef40 49bf 9468 233e e724 a1be 80db 26bf
00000050: 9ef2 393c 8991 43bf 795a 56be 4a65 e8bf
00000060: 5e4c 97be 7a8c 3cc0 db1e 38bf 0760 b13f
00000070: 0d23 8ebe 6470 4fbd cf44 62bf 0973 97bf
00000080: 3f68 e4be 67b5 2ebf 4050 55bf b30b cebf
00000090: eece 51be ee2d 09c0 afd8 dcbf dac2 96bc
000000a0: cf6d adbf 21be 3940 ff6a 123d a682 37c0
000000b0: d8d9 32c0 7da8 c9be f035 c63d f12c 5bbd
000000c0: 173d adbf 7e41 503f aab0 0fbf 8479 50bf
000000d0: 7eb0 e2be 096c 843c 184e dbbe 6131 f13e
000000e0: c55e a43e b7d9 2ec0 c259 cdbe 567a 88bf
000000f0: 3519 74bf de0a 963e 6981 973e c1fb 84c0
1.2584599 0.14927179 2.7919934 -0.63025486 -0.32171148 0.29174587 -0.39992595 -0.48864898
-0.48893932 -1.518699 1.2848904 -0.7774268 1.0466285 0.5982544 -0.7473105 -1.0894368
-0.78614706 0.15957862 -0.31473467 -0.6517868 0.011349348 -0.76393944 -0.2093295 -1.8155911
-0.2955045 -2.946074 -0.7192208 1.385743 -0.27761117 -0.050644293 -0.88386244 -1.1831981
-0.44610783 -0.6824555 -0.83325577 -1.609732 -0.20489094 -2.1434283 -1.7253627 -0.01840346
-1.3549136 2.9022295 0.03574657 -2.8673491 -2.7945461 -0.3938636 0.096782565 -0.053509656
-1.3534268 0.81349933 -0.5612894 -0.8143542 -0.44275278 0.016164796 -0.42833018 0.47107986
0.32103553 -2.7320383 -0.40107542 -1.0662334 -0.9535096 0.29305166 0.2959092 -4.1557317

encoder.10.running_var f4 [64]
00000000: a9fe 0d40 2025 173f a524 de3f 872e d73e
00000010: 703d 803f 698b b03f a34a 013f c163 653f
00000020: 8584 993f 534b 3b3f bc96 843f a506 923f
00000030: a616 4d3f c1e4 203f 50ea f63f b1cd 683f
00000040: 7c83 6a3f 9fb0 343f 7b94 ab3f 7203 f93f
00000050: 4aa7 3a3f dd53 ac3f a8a0 f13e b3cc c53f
00000060: 733b d93e c5fc 9f3f 75ab 193f 86c4 583f
00000070: 89f6 8c3f ab1a d13e c33e 853f 6ffa 0440
00000080: 92a0 d73e 248a f63e 14b5 1b3f dcef 0040
00000090: ce2a 263f 6148 ec3f cec4 a73f 91ed 183f
000000a0: abdd 1740 b847 813f 7bd0 283f 8276 9f3f
000000b0: 42cb ba3f 7cfb 253f c68e 1c3f bd4e b93e
000000c0: be2f 1a3f 2526 3e3f 462b 2e3f d2f7 9b3f
000000d0: 4e39 e63e 1af0 3e3f d20d ac3f 345a 3c3f
000000e0: b424 603f f2bc dc3f 4f18 043f bfca dc3f
000000f0: 6966 2b3f 05cf 913f e437 433f 4e7c 3240
2.2186682 0.59041023 1.7354933 0.42027685 1.0018749 1.3792545 0.5050451 0.8960534
1.1993567 0.7316181 1.03585 1.1408278 0.80112684 0.6284905 1.9290257 0.9093886
0.9160688 0.70582 1.3404688 1.9454176 0.7291151 1.3463093 0.47192883 1.5453094
0.4242817 1.2499014 0.6002725 0.8467487 1.1012737 0.4084066 1.0409778 2.0777853
0.42114693 0.48152268 0.6082318 2.0146399 0.64909065 1.8459588 1.3106935 0.597375
2.3729045 1.0100012 0.65943116 1.2458041 1.4593279 0.6483686 0.61155355 0.36192885
0.602291 0.74276954 0.6803478 1.2185004 0.44965595 0.74585116 1.3441718 0.7357514
0.87556005 1.7245162 0.5159959 1.7249373 0.6695314 1.1391302 0.7625716 2.788837

decoder.0.weight f4 [64, 32, 4, 4]
00000000: 90b9 91be d78d 08bf 5fbf 40be d0f5 59bd
00000010: 3e59 d63d 1645 f13d ca83 a83e b7a8 0a3c
00000020: 4214 a5be aa27 b3be ae12 17be ca28 06be
00000030: 4d3b ebbe 9fe7 183c 3eae b0bd c4fc 9abe
00000040: d26d b83e 92f2 05be 115b 983e 5a40 92bd
00000050: 2941 1fbe f867 d1bd ed97 f73e 796e 28bf
00000060: f6ca b9be fd6c 603d b998 2abe 8032 8fbe
00000070: d217 e0be 31fd 6d3d 1701 eebe f7d0 2ebf
00000080: 6f9a 163e ca61 4c3e 1a60 813d fece 4a3d
00000090: ffbc 9cbd 3045 363e 7880 5abe 1c8b d53e
000000a0: 8b6d 5e3d e319 6f3d b7de 9ebd 4bd8 1b3e
000000b0: c733 35be 4c63 e0bd c0ba eabe dc31 a73e
000000c0: 518d cdbe 70aa 9bbd 968c 13bf de5e 6bbe
000000d0: 4d58 10be 15aa 07be 02d0 8a3d d997 d4bd
000000e0: ced3 98be 3097 b93b 7ffd b4be 0e62 76be
000000f0: 90d5 e7be ae82 b13b c06b 23be bf6d 5f3d
00000100: 2a0a 953e 951f 013e f682 703e 09d2 403e
00000110: 6bdd aabd 8155 263e 75ed 25be a96c ddbe
00000120: 2822 733d 56db 2abd 3fa5 4bbd d8e8 b9bc
00000130: 8f6a 253e d487 283f 97a4 543d 831e 69be
00000140: bd80 f73d a492 263d 12a0 09bd c6c9 82bf
00000150: ee31 4b3e 8d81 0b3f 9236 f53d 5d40 31bc
00000160: 5324 073e 4bfb 03bf 5903 2c3e 606a 4bbf
00000170: 5cab b9bb 6198 883e ed2b 89be 64f0 67bc
00000180: dd83 9fbe 987f c83d 942e 883e ae4d 5ebf
00000190: 1a15 b23d 33bd b8bd 5001 a73e 80e7 88bd
000001a0: adad 20be 06fb d13c 8d1f 393e a695 b7be
000001b0: b352 3cbe 008e bc3d 8269 1a3e c01b c4bd
000001c0: ed00 113e 825d b8bb 8636 9c3e 2639 cc3e
000001d0: bab4 94be 1fdc f43c 0621 9fbe 4c2a a9be
000001e0: 454c 32bb 93ee 11be 5518 313e 6d42 5bbe
000001f0: 0c49 773e fc29 67be 19cc d1be 1d1d 03bf
00000200: 3823 ecbe 1e8f 6fbe 7c19 f6bd 92ed 5abd
00000210: 3e18 93be 6e12 343d 1a48 14be 6459 a2be
00000220: 1b19 973c 6965 f0bc 6180 e63e 3ccc 0f3d
00000230: e771 2bbe 1803 cabe 10b0 7fbe 946d 1cbf
00000240: 43f3 1abf 41fd 79bf 898b 863e 69aa 73bf
00000250: 6573 2ebf 2f0e 483d 9e3a 66bf 16df 053e
00000260: 6db0 38be fa74 94bf befc 063f e0b9 69bf
00000270: 2bd0 94bf 84d8 c83c 5fba aebf edc9 543d
00000280: 37ed 79bf 63fb efbe 7cc9 dabe bc7a c3be
00000290: 3c8b 15be 700a 2bbe 7614 8a3e 1ccd 02bd
000002a0: 939d 3bbf 50cb df3d e67c 86be 6312 4e3e
000002b0: de8a 62be e66c 683e 09d0 3b3d 18ac c23e
000002c0: acf7 ddbc 475a 82bd 9a78 4e3e 28c3 b3be
000002d0: beae 883d e32c 0bbd 7593 ee3b 342c fd3c
000002e0: 5e84 253e 53a6 77ba 2a30 cf3d 6631 22be
000002f0: 3841 1dbe b9a5 3dbd 688d 063e fd8a e5bd
00000300: 5dbe ae3e 0ef3 053e ac7e 01be ccec 923e
00000310: f982 72bf f55a 7d3d a427 4ebc 2ee7 50be
00000320: a454 063e 582a c03e 757f 0bbe fb60 f73d
00000330: ec26 35c0 ed2a 0b3c 3449 b0bf 2212 f03d
00000340: 8c14 16bf e9cf 22be e92b 90be e3a1 79bd
00000350: 9872 8e3e 09f9 393a 5246 e33d 83c0 0fbc
00000360: 130e 28be 4543 063e fc2f 49bd 0dc7 883e
00000370: 894a e93e bfe3 7cbe 3957 e43e 8ded 1dbe
00000380: 670c 913d 0b45 a13e edb8 a9be 8e8a 503e
00000390: 4dfc 9abd b89f c8bd 84bd 80bd b74c 473d
000003a0: 367c 71bd 7aec 133e 1f3c 97bd 7c59 1d3e
000003b0: c8c3 e13d 6443 cd3c 24a6 ccbb d6d6 583e
000003c0: 0bf7 cabd 26c3 46bf 47df 03be 901b f9be
000003d0: 459a adbe ed37 73be c62c 9a3c 8425 eebe
000003e0: 11bb 193e 7c35 edbe 0049 8abe d2f3 1cbf
000003f0: b444 6d3e 6cab 0b3e f675 27be d18b 253e
-0.28461885 -0.5334143 -0.18823002 -0.05321294 0.1046624 0.11780755 0.32913047 0.008463076
-0.32242018 -0.349912 -0.1475322 -0.13101497 -0.4594368 0.0093325665 -0.08626984 -0.3027097
0.36021286 -0.13080814 0.29756978 -0.0714118 -0.155522 -0.102249086 0.48358098 -0.6579357
-0.3628766 0.05479144 -0.16659822 -0.27968216 -0.43768173 0.05810279 -0.46485206 -0.68287605
0.14707349 0.19959179 0.06317158 0.04951381 -0.07653236 0.1779983 -0.2133807 0.41707695
0.054303687 0.058374297 -0.07757323 0.15219228 -0.17695533 -0.109564394 -0.45845604 0.32655227
-0.40146878 -0.07600868 -0.5763639 -0.22985408 -0.14096184 -0.13248475 0.067779556 -0.10380525
-0.29849094 0.005663775 -0.35349652 -0.24060842 -0.45280123 0.0054171896 -0.15959072 0.05454802
0.29109317 0.12609704 0.23487458 0.18830122 -0.083430134 0.16243555 -0.16203864 -0.43246964
0.059358746 -0.04171308 -0.049718138 -0.022694036 0.1615393 0.6583226 0.051914778 -0.22765546
0.12085102 0.04066719 -0.03359992 -1.0217826 0.19843265 0.54494554 0.11973299 -0.010818568
0.1319745 -0.5155532 0.16798152 -0.7945919 -0.0056661796 0.26678756 -0.26791325 -0.014156435
-0.3115529 0.097899616 0.26598036 -0.8683728 0.08695431 -0.09020462 0.3261819 -0.0668478
-0.15691252 0.025632393 0.18078442 -0.3585636 -0.18390922 0.09206772 0.1507931 -0.095756054
0.1416051 -0.0056263814 0.30510348 0.3988735 -0.29044133 0.029890118 -0.31079882 -0.33040082
-0.0027206105 -0.14251165 0.17294438 -0.21412058 0.24148959 -0.2257461 -0.40976027 -0.512163
-0.4612062 -0.23394439 -0.120165795 -0.05344922 -0.28729433 0.04396289 -0.1448063 -0.31708825
0.018444588 -0.029345231 0.4501982 0.035106882 -0.16742669 -0.39455485 -0.24969506 -0.611047
-0.6052744 -0.9765206 0.26278332 -0.951819 -0.6814483 0.04884165 -0.8993319 0.13073382
-0.18036051 -1.1598198 0.52729404 -0.9129925 -1.1626028 0.024517305 -1.3650626 0.051950384
-0.97627586 -0.4687148 -0.42731845 -0.38179576 -0.14603895 -0.167032 0.26968735 -0.03193389
-0.73287314 0.10927451 -0.26267165 0.20124201 -0.22123286 0.22697791 0.045852695 0.38021922
-0.027095638 -0.06364875 0.20163193 -0.3510983 0.066739544 -0.033978354 0.007280762 0.030904867
0.16163775 -0.00094470865 0.101166084 -0.15839157 -0.1535691 -0.046300624 0.1313988 -0.112081505
0.3412961 0.13081 -0.12645978 0.28696287 -0.947311 0.06185432 -0.012582693 -0.20400688
0.13118225 0.37532306 -0.1362284 0.120790444 -2.8305006 0.008494121 -1.377234 0.117222086
-0.586251 -0.15899624 -0.281585 -0.060945403 0.27821803 0.0007094299 0.11097397 -0.008773926
-0.16411619 0.13111599 -0.049118027 0.26714364 0.45564678 -0.24696253 0.44597796 -0.1542265
0.07082444 0.31497988 -0.331489 0.20365354 -0.07567654 -0.09796089 -0.06286147 0.048657145
-0.058956347 0.14445677 -0.07384514 0.15366167 0.110236704 0.025056548 -0.0062453914 0.21175703
-0.09910401 -0.7764152 -0.12878142 -0.4865384 -0.3390676 -0.23751803 0.018820178 -0.46512997
0.15012766 -0.46329868 -0.2700882 -0.6130954 0.2317074 0.13639611 -0.16353592 0.16166617

decoder.0.bias f4 [32]
00000000: 59ed ffbb df96 243c 99a3 1fbc 072e 71bc
00000010: 845e cf3b e98c 9bbb add4 0ebb 9638 163b
00000020: 2208 6d3c 9832 0dbb f590 6dbc 3d57 0c3c
00000030: 0390 b3bb 62ec 2339 9290 6139 8799 003b
00000040: 2e6f 3f3c df17 0ebc 099c 09bb 0f6b 56bb
00000050: 766d 7dbc 9735 8e3b 874f 3b3c 1eb9 64b9
00000060: ceee 65bb f822 0bbb 4fc5 8a3c 5fd1 c1bb
00000070: 7a58 8d39 d275 053c 3dc8 9f3b 2836 05bc
-0.0078102765 0.010045736 -0.009743595 -0.014720446 0.006328406 -0.0047470224 -0.0021794245 0.0022921911
0.014467271 -0.0021545049 -0.0144998925 0.008565721 -0.005479814 0.00015632951 0.00021511529 0.001962276
0.011684222 -0.0086726835 -0.0020997545 -0.003271762 -0.015467992 0.0043398845 0.011432535 -0.00021812736
-0.0035084966 -0.002123056 0.016939787 -0.0059148516 0.00026959536 0.008145766 0.004876165 -0.008130588

decoder.1.weight f4 [32]
00000000: bb43 803e 2dbf ac3e 7938 923e 41de b93e
00000010: 6749 e33e eca5 923e 04b6 933e bb0d 953e
00000020: 6e7a 8f3e 0ff5 ce3e fd58 b13e 78b6 893e
00000030: c0d3 9b3e 6767 b03e 8b9f c03e e0f1 8e3e
00000040: 5416 963e 5eed 7f3e 595c 813e 977b ba3e
00000050: 9b49 143f 6688 8d3e 22da a03e 4e33 a63e
00000060: c478 a83e eca5 b93e 7ead 943e 5216 b73e
00000070: 1ebd a53e 808e ca3e 92b5 c83e 19ea 883e
0.25051674 0.33739606 0.2855871 0.3630238 0.4439194 0.28642213 0.28849804 0.29112038
0.28023094 0.4042134 0.34638205 0.26897025 0.3043499 0.3445389 0.37621722 0.2791891
0.2931391 0.24992892 0.25265768 0.36422417 0.57924813 0.27643126 0.31416422 0.32461017
0.32904637 0.362594 0.29038614 0.35759217 0.32370847 0.39561844 0.39201027 0.26741102

decoder.1.bias f4 [32]
00000000: 9619 94bc 5643 9dbe e938 60be ae22 84be
00000010: d4d1 28bd 6fee 7f3c 8397 32be 075d 003c
00000020: 20c9 1abe 4b03 f0be 7594 febd 91c0 b8bd
00000030: 573d a3be 9bb7 48be 841f 3dbe a628 8abe
00000040: 8aca 0abe ad4b 3cbe 2d60 42bd 6704 fabd
00000050: 79df 38bf 8ca9 80be 7fa3 06be 4d58 b0be
00000060: 3426 94bd 8c53 b8bd 8805 acbe a5cd b2bd
00000070: a36b fcbc 00c4 05be b168 43bd 35a7 5dbe
-0.018078607 -0.30715436 -0.2189671 -0.25807709 -0.041215733 0.015620812 -0.1744061 0.007834679
-0.15115786 -0.46877512 -0.1243066 -0.09021104 -0.31882736 -0.1960129 -0.18469054 -0.26984137
-0.13553825 -0.18388243 -0.047455 -0.12207871 -0.7221599 -0.25129354 -0.13148306 -0.34442368
-0.07233849 -0.0900031 -0.3359797 -0.0873063 -0.030813044 -0.1306305 -0.047707263 -0.21645816

decoder.1.running_mean f4 [32]
00000000: e3c6 99be 9508 86be 0f60 54bf a20f 19bf
00000010: c6ca 12bf 8ac9 9cbe df2f b9be ca18 3ebe
00000020: afd0 4fbf f138 223f 5df8 0abf 18cd 48be
00000030: 4fe2 d4be 8885 35bf 6d26 1fbf df97 ffbe
00000040: 8110 d4be fdbb 35be b734 38bf cec4 8abf
00000050: a511 bfbe 98ee 1fbf 9855 1cbf 98ac 01bf
00000060: 0699 3cbf 4a07 41bf 3093 c33e 5e32 29bf
00000070: 1555 04bf e9f3 2ebf 534d 32bf 8a6b 7ebe
-0.3003455 -0.26178423 -0.82959074 -0.5978948 -0.5734066 -0.30622512 -0.36169335 -0.18564144
-0.811778 0.63368136 -0.5428522 -0.19609487 -0.4157891 -0.7090688 -0.6216801 -0.49920556
-0.4141884 -0.17747493 -0.71955436 -1.084131 -0.3731815 -0.6247344 -0.61068106 -0.5065398
-0.73670995 -0.7540175 0.38198233 -0.6609248 -0.51692325 -0.6834093 -0.6964924 -0.2484571

decoder.1.running_var f4 [32]
00000000: b7b7 513f 1778 b93e 3f58 fb3e cd5e 0a3f
00000010: 68e7 bd3f 7d62 713f b437 e63e 310a 2a3f
00000020: cbae 033f 84e6 9e3e d1ce 643f 3b44 ef3e
00000030: 0ff4 bf3e 2517 073f 4b83 ad3f 2bb9 a33e
00000040: 414c d83e 8548 a63e d73b 0b3f 6f19 a53f
00000050: 14a9 603e 10cc dd3e fc19 2a3f 6417 8d3e
00000060: 6387 513f d9d7 883f 9de5 953e 1fdc 943f
00000070: 6cc0 4e3f 5ccd 533f 978e 8e3f 4780 9a3e
0.8192095 0.36224434 0.49090764 0.54050905 1.4836245 0.94290906 0.44964373 0.664218
0.5143859 0.31035244 0.89378077 0.46731743 0.3749089 0.5276969 1.3555692 0.3197721
0.42245677 0.32477203 0.54388183 1.2898387 0.21939498 0.4331975 0.664459 0.27556908
0.8184721 1.0690871 0.29276744 1.1629676 0.8076236 0.8273523 1.1137265 0.30175993
